Model: "sequential"
_________________________________________________________________
 Layer (type)                Output Shape              Param #   
=================================================================
 dense (Dense)               (None, 12)                108       
                                                                 
 activation (Activation)     (None, 12)                0         
                                                                 
 dense_1 (Dense)             (None, 8)                 104       
                                                                 
 activation_1 (Activation)   (None, 8)                 0         
                                                                 
 dense_2 (Dense)             (None, 1)                 9         
                                                                 
 activation_2 (Activation)   (None, 1)                 0         
                                                                 
=================================================================
Total params: 221 (884.00 Byte)
Trainable params: 221 (884.00 Byte)
Non-trainable params: 0 (0.00 Byte)
_________________________________________________________________
Epoch 1/150

 1/77 [..............................] - ETA: 12s - loss: 11.0647 - accuracy: 0.4000
…
