Model: "sequential"
_________________________________________________________________
 Layer (type)                Output Shape              Param #   
=================================================================
 dense (Dense)               (None, 32)                800       
                                                                 
 dense_1 (Dense)             (None, 1024)              33792     
                                                                 
 dense_2 (Dense)             (None, 512)               524800    
                                                                 
 dense_3 (Dense)             (None, 256)               131328    
                                                                 
 dense_4 (Dense)             (None, 128)               32896     
                                                                 
 dense_5 (Dense)             (None, 3)                 387       
                                                                 
 activation (Activation)     (None, 3)                 0         
                                                                 
=================================================================
Total params: 724003 (2.76 MB)
Trainable params: 724003 (2.76 MB)
Non-trainable params: 0 (0.00 Byte)
_________________________________________________________________

 1/19 [>.............................] - ETA: 3s - loss: 1.0971 - accuracy: 0.3438
…
