(42000, 28, 28, 1) (42000, 10)
Model: "sequential"
_________________________________________________________________
Layer (type)                 Output Shape              Param #   
=================================================================
conv2d (Conv2D)              (None, 26, 26, 128)       1280      
_________________________________________________________________
max_pooling2d (MaxPooling2D) (None, 13, 13, 128)       0         
_________________________________________________________________
conv2d_1 (Conv2D)            (None, 11, 11, 64)        73792     
_________________________________________________________________
max_pooling2d_1 (MaxPooling2 (None, 5, 5, 64)          0         
_________________________________________________________________
conv2d_2 (Conv2D)            (None, 3, 3, 32)          18464     
_________________________________________________________________
max_pooling2d_2 (MaxPooling2 (None, 1, 1, 32)          0         
_________________________________________________________________
flatten (Flatten)            (None, 32)                0         
_________________________________________________________________
dense (Dense)                (None, 256)               8448      
_________________________________________________________________
dense_1 (Dense)              (None, 128)               32896     
_________________________________________________________________
dropout (Dropout)            (None, 128)               0         
_________________________________________________________________
dense_2 (Dense)              (None, 10)                1290      
=================================================================
Total params: 136,170
Trainable params: 136,170
Non-trainable params: 0
_________________________________________________________________
Epoch 1/40
1050/1050 - 7s - loss: 0.6721 - accuracy: 0.7905 - categorical_accuracy: 0.7905 - val_loss: 0.1826 - val_accuracy: 0.9463 - val_categorical_accuracy: 0.9463
Epoch 2/40
1050/1050 - 4s - loss: 0.2042 - accuracy: 0.9450 - categorical_accuracy: 0.9450 - val_loss: 0.1556 - val_accuracy: 0.9550 - val_categorical_accuracy: 0.9550
…
