(42000, 28, 28, 1) (42000, 10)
Model: "sequential_1"
_________________________________________________________________
Layer (type)                 Output Shape              Param #   
=================================================================
conv2d_1 (Conv2D)            (None, 26, 26, 128)       1280      
_________________________________________________________________
max_pooling2d_1 (MaxPooling2 (None, 13, 13, 128)       0         
_________________________________________________________________
conv2d_2 (Conv2D)            (None, 11, 11, 64)        73792     
_________________________________________________________________
max_pooling2d_2 (MaxPooling2 (None, 5, 5, 64)          0         
_________________________________________________________________
conv2d_3 (Conv2D)            (None, 3, 3, 32)          18464     
_________________________________________________________________
max_pooling2d_3 (MaxPooling2 (None, 1, 1, 32)          0         
_________________________________________________________________
flatten_1 (Flatten)          (None, 32)                0         
_________________________________________________________________
dense_1 (Dense)              (None, 256)               8448      
_________________________________________________________________
dense_2 (Dense)              (None, 128)               32896     
_________________________________________________________________
dense_3 (Dense)              (None, 10)                1290      
=================================================================
Total params: 136,170
Trainable params: 136,170
Non-trainable params: 0
_________________________________________________________________
Train on 33600 samples, validate on 8400 samples
Epoch 1/40
 - 24s - loss: 0.3299 - accuracy: 0.9020 - categorical_accuracy: 0.9020 - val_loss: 0.1577 - val_accuracy: 0.9525 - val_categorical_accuracy: 0.9525
…
