_________________________________________________________________
Layer (type)                 Output Shape              Param #   
=================================================================
lambda_1 (Lambda)            (None, 32, 32, 3)         0         
_________________________________________________________________
conv2d_1 (Conv2D)            (None, 32, 32, 3)         12        
_________________________________________________________________
conv2d_2 (Conv2D)            (None, 14, 14, 16)        1216      
_________________________________________________________________
conv2d_3 (Conv2D)            (None, 12, 12, 32)        4640      
_________________________________________________________________
max_pooling2d_1 (MaxPooling2 (None, 6, 6, 32)          0         
_________________________________________________________________
conv2d_4 (Conv2D)            (None, 4, 4, 64)          18496     
_________________________________________________________________
conv2d_5 (Conv2D)            (None, 2, 2, 128)         73856     
_________________________________________________________________
flatten_1 (Flatten)          (None, 512)               0         
_________________________________________________________________
dropout_1 (Dropout)          (None, 512)               0         
_________________________________________________________________
dense_1 (Dense)              (None, 128)               65664     
_________________________________________________________________
dropout_2 (Dropout)          (None, 128)               0         
_________________________________________________________________
dense_2 (Dense)              (None, 43)                5547      
=================================================================
Total params: 169,431
Trainable params: 169,431
Non-trainable params: 0
_________________________________________________________________
Train on 27839 samples, validate on 6960 samples
Epoch 1/10
 - 6s - loss: 3.3205 - acc: 0.1233 - val_loss: 2.5125 - val_acc: 0.3421
Epoch 2/10
 - 6s - loss: 2.2471 - acc: 0.3529 - val_loss: 1.6859 - val_acc: 0.4756
…
